Homework Assignment 2/h2data-1/h3data/checkpoints/h10-bs16/decoder.pt (torch, 12356 bytes, 10 tensors)

weight f4 [29, 10]
00000000: ee91 debd 80d3 f63c 3dc2 86bf 7b71 973f
00000010: c3be 0bbf daf2 943d e3af 693d 2b4a c53e
00000020: e5cd cfbe 1554 42c0 4fdc 0f3e 4b2e 1d3e
00000030: 6b95 0a3f 197b 443f ceb7 48be 69db 1d3e
00000040: 9812 d7be 9398 4c3e 7f36 ce3e 5d4b 3dbe
00000050: 757b be3e 9cae ccbd 17da b5be dcc5 4fbe
00000060: 5a40 dabe 345d 1abe bb7e 363e 0c96 a2be
00000070: 715b 2d3f a5d3 f2be 929f 49be 3473 7abe
00000080: 7349 ce3d 0694 01bf 807e c1be efee 4c3e
00000090: 7f08 6ebe 82c9 b6be 1320 19be 44a6 ae3d
000000a0: 55df 513e e2fd f53e 0157 7fbe 956e 92be
000000b0: ab3c b63e 67c8 8b3e 5d0a e7bd 897e a7bd
000000c0: 544d 083f f707 4dbe 71c8 80be d165 3b3e
000000d0: ef53 043e ab7f 663e 69bc 44bd 5529 613e
000000e0: 9971 253f f20d a6bd 7d7a 38be df0b e13e
000000f0: f319 d53e 365f 4ebf 1c8f a2bc 058d e5be
00000100: 329e 35bf 10b5 2abf d8e7 8cbe 1cfe 56bf
00000110: 7145 febe caab 40be c4d0 833e 55db 99be
00000120: eeed 34be 32ab 25bf 33bf 523f 687a 7e3d
00000130: f690 cb3d c7a8 963e 34e6 a6be 5e73 e0bd
00000140: 9a2a 833e 7d4a 86bf c0d1 4bbe 9657 0fbf
00000150: 2cba 443e cac2 b53d cf17 11bd 1815 11be
00000160: 3e0e 303e 6d77 72be 8730 113d cca9 f83e
00000170: fce2 2bbe 68a7 1f3f c671 c0bd 1a3f 4fbe
00000180: 48d6 e5be 09fa aa3e 6856 37be d404 ac3e
00000190: 8fef 62bf e50e b43d 23b1 a6bd 843a 84bf
000001a0: 6b15 edbd f52c e2be ba3c 9cbf 2b47 94bf
000001b0: 1453 a03d 3c3e dcbd 657b afbe 3057 77bf
000001c0: 2364 7abf 2738 3abf 73c9 493f 9d04 713f
000001d0: beb1 233e 85fc 813e 1654 74be 95ba 0f3f
000001e0: 81e4 0fbf 063c 10bf d5dd adbe edd4 ecbd
000001f0: 33ae 0bbe 4e22 2bbc 7d11 d2be 4779 993e
00000200: b3f7 cbbe a3c6 503e 0308 5ebe f7bf c9be
00000210: 13be 8a3e 6e86 25be b067 c83e 5cef 84be
00000220: bce4 b8be 3d68 e8be 084b bebd b1f4 a9be
00000230: f6ff 8a3d 6895 e83d 819b a73e a90b a5bd
00000240: 04f1 b63e 4750 b33e 982f 84be cf9f 2ebd
00000250: ce59 4fbe 3ebb 273e 4bfd 653e c43b e3bd
00000260: d18a 1c3d 9041 cf3e a266 7abe c3c1 743e
00000270: e716 10bd 5fc1 89be e563 c13e 24e9 fa3e
00000280: 588f 91be a861 babd bcef c7be ba7e 32be
00000290: 28bb 89be bd7c 3e3e ada7 9f3e d0ba 3abe
000002a0: 3058 203f 9cc8 ecbd 3532 a0bf 5539 f7be
000002b0: 084d 973e ecb4 f3be 8784 1cbf 7468 18bf
000002c0: d7a2 3bbf 4068 04c0 54b0 1cbf d66e 0d3f
000002d0: e917 6fbe e407 1dbd 0adc 3e3d 1e05 9fbd
000002e0: ff57 833e 4f10 39bf 267c 803e d5bf a23e
000002f0: 1d4e 043f 6991 20be 3fdc 393e 9b4e a53e
00000300: a579 2bbf 14b1 88be 1ad2 d9bd 5822 9e3d
00000310: 46e5 513e 854b c73d bf7d ef3d b2c5 5b3e
00000320: e9c5 c03d 056e 53be ae16 0ebd 33b2 f0be
00000330: 6c9c d2bd da8f 8fbe d4c4 bd3e 98fd 223d
00000340: 8404 87be e26c f1bd 3743 2dbe 4fc0 6b3e
00000350: 6b28 b2be e273 bc3e c5a5 e1be acda 8b3e
00000360: 3207 1cbf f13d a0be 5da5 0f3e f60f 7abe
00000370: c1dc bdbd a907 cdbd 9fbb 903e 216c 0ebf
00000380: 9cd8 fb3e bacb a2bd 9a89 6a3e 539c bb3d
00000390: 9a92 36be fdd4 f6bd 3230 61be 82f5 bb3e
000003a0: 9e54 523e 71ba 52bf 3bf4 6c3e ab51 11be
000003b0: 5726 13be ab00 0fbe 5161 e2be 64be a1be
000003c0: 1081 133f f77d 3f3e 743d a4bd 5154 70bf
000003d0: b8da 87be 5f7d b73f e4c2 02be 97f9 d1be
000003e0: 06c6 9bbe 49ee b13c 6db5 613e 0876 2fbd
000003f0: 745f 643e be1a 913f b83f 8e3e 88f8 68be
-0.10867678 0.030130148 -1.0528027 1.1831506 -0.54587954 0.07272883 0.057052504 0.38533148
-0.40586773 -3.036382 0.14048885 0.1534969 0.54134244 0.7675033 -0.19601366 0.1541573
-0.42006373 0.19980077 0.40275952 -0.1848578 0.37203565 -0.099942416 -0.35517952 -0.20290321
-0.4262722 -0.15074617 0.17821781 -0.31755102 0.67717654 -0.47427097 -0.19689777 -0.24458009
0.10072603 -0.5061649 -0.37791824 0.20013021 -0.23245429 -0.35700613 -0.14953642 0.085278064
0.2049535 0.4804526 -0.24935533 -0.28599992 0.3559316 0.27301332 -0.112812735 -0.081784315
0.53242993 -0.2002257 -0.25152925 0.18300559 0.12922643 0.22509639 -0.048031244 0.21988423
0.6462646 -0.081081286 -0.18015476 0.4395437 0.4162136 -0.8061403 -0.01984363 -0.44834152
-0.7094451 -0.6668253 -0.27520633 -0.8398149 -0.49662355 -0.18815532 0.25745213 -0.3005015
-0.17668888 -0.6471435 0.82322997 0.062128454 0.099397585 0.29425642 -0.32597506 -0.109595045
0.2561844 -1.0491482 -0.19904232 -0.5599302 0.19211644 0.08875044 -0.035423096 -0.14168203
0.17192933 -0.2367837 0.03544667 0.48567045 -0.16785806 0.62364817 -0.093967006 -0.20238915
-0.44890046 0.33393887 -0.17904055 0.33597434 -0.8864679 0.087919034 -0.08139255 -1.0330358
-0.11576351 -0.44174924 -1.2206032 -1.1584219 0.07828346 -0.10754058 -0.3427383 -0.9661741
-0.97809047 -0.7274193 0.7882301 0.94147664 0.15985772 0.2538797 -0.23860201 0.56144077
-0.56208044 -0.5634159 -0.33958307 -0.1156405 -0.1364067 -0.010445191 -0.41028967 0.2997534
-0.39837417 0.20388274 -0.21682744 -0.3940427 0.2709814 -0.16164562 0.39141607 -0.25963867
-0.3611201 -0.45392027 -0.09291655 -0.33194497 0.06787102 0.11356622 0.32735828 -0.080588646
0.35730755 0.35022184 -0.2581756 -0.042632874 -0.20249102 0.16380021 0.22459905 -0.11095384
0.038218323 0.40479708 -0.24453214 0.23902039 -0.03517809 -0.26905343 0.37771526 0.49005997
-0.28429675 -0.09100658 -0.3905009 -0.17431155 -0.269006 0.18602271 0.31182614 -0.18235326
0.62634563 -0.11561701 -1.2515322 -0.48285928 0.29550958 -0.4759897 -0.6113972 -0.5953438
-0.7329535 -2.068863 -0.61206555 0.5524725 -0.23348965 -0.038337603 0.046596564 -0.07764648
0.25653073 -0.7229051 0.25094718 0.3178698 0.5168169 -0.1568047 0.18150423 0.32286534
-0.6698249 -0.266976 -0.10635777 0.07721394 0.20497617 0.09731201 0.11693906 0.21462134
0.09412748 -0.20647438 -0.034689598 -0.47010955 -0.10283741 -0.28039438 0.3706423 0.039792627
-0.26370633 -0.11788346 -0.16920172 0.23022579 -0.3479646 0.36807162 -0.44071785 0.2731527
-0.6094848 -0.31297258 0.14027925 -0.24420151 -0.09270621 -0.10011227 0.28268144 -0.5563374
0.49188697 -0.07949014 0.22904053 0.09160676 -0.17829362 -0.12052343 -0.21991041 0.36710745
0.20540091 -0.82315737 0.23140042 -0.1419131 -0.14370094 -0.13965099 -0.44214872 -0.3159057
0.5761881 0.18700396 -0.08019534 -0.93878657 -0.26534057 1.4335135 -0.12769657 -0.41010734
-0.30424517 0.021720069 0.22041865 -0.042837173 0.22302037 1.1336286 0.2778299 -0.22751057

weight_ih f4 [30, 20]
00000000: d3cb bb3e 9d95 413d a6cd 5c3e fc74 623e
00000010: 8ce4 223f f63e e7bf 4b4b 6e3f 44f1 f2bf
00000020: b75d 49bf 6187 04bf 26c1 24bf fb15 9f3f
00000030: a4d8 83c0 819f 8dbe e96a 01bf e81f 58c0
00000040: fdf1 1e3f fab0 80bf bb54 2ebf 2835 663f
00000050: ccc9 0740 8400 833f 00a7 2640 9493 a8bf
00000060: dbfa 18c0 f963 3bbf a859 eabc c48f a63f
00000070: 9604 6ebf b166 16bf 3df2 c8bf 5390 003f
00000080: f478 13c0 5e85 943f 7f93 bcbd 80dc f1bf
00000090: c37b 01c0 5cd9 1040 e39a 983f a793 3f3e
000000a0: 25c9 733f ddba 93be 064e e4bf 356f 863f
000000b0: a740 493f fe56 7d3f 4236 8bbf fcf6 33bf
000000c0: 26da ca3f 50c3 943f 38a6 853f ea56 f33d
000000d0: fc78 2a3f e089 19be b3ee 53be 8123 0a3f
000000e0: 599a 5bbe 75db 093f 4a46 fdbe 9bcb 683e
000000f0: a929 8dbf 0098 66bf a9ce 983f 485b 273f
00000100: 5f61 6dbf 2c9f b7bf 6116 65bf e664 493e
00000110: e80f c93e 2ec3 50c0 2cc8 5b3f cfbb 5bc0
00000120: ff82 f6be a08a f83f e25f e0bf ce97 cfbf
00000130: 8ddf f3bf 7bc2 ab3f 2714 b83f 2ed8 c8bf
00000140: b010 39bf ea6f f8bf 2624 d13e d827 073f
00000150: ea8f a93f f67e 043e dce4 e1bf 5c66 6c3e
00000160: cc86 ad3f a4d8 51bf ba82 1240 46ae f9be
00000170: 015a d3bf e373 fd3f 9390 e73f f6e0 bebf
00000180: 7be2 983d 91a4 3540 411f bb3f 643f 853f
00000190: 923d 83bf 3a29 0440 52f3 503d d0a1 d9be
000001a0: 4604 07bd 35bc 8fbd 31aa eebf 9666 ca3f
000001b0: 22b0 37be 388b f53f 474b a9bf 2990 103f
000001c0: 573e ed3e 7270 e1bf ec4e c43f dc26 cebf
000001d0: fe5d 3bbf 4584 8a3f f055 e2be a582 eabf
000001e0: 65f5 1b3f a712 7bbe 87fc 823f 4946 cfbc
000001f0: cd06 0c3e 6960 a53e dbe9 3fbf aa1c f73d
00000200: 7e3f 9f3e 6799 a5bf 5aff 8cbe f81b 913f
00000210: dc25 a93f 43f4 1a3d 7e99 44bf e5f6 b73f
00000220: 5bfc 86bf f3a9 2e40 78e3 56be b4b9 a9bf
00000230: a23f 7bbe 1bd9 8dbd b3f7 963e 3559 dbbe
00000240: 112b eb3e bbad 653f 5b0a babf 79b5 9e3f
00000250: 9eee 1d3e f09e 19c0 74a2 f4bf ae1b 6c3f
00000260: 64ae 3dbf 1748 0740 d2f0 82be f847 333e
00000270: 4c03 71bf 91fe 313f 620e d83e 2eb9 3ebf
00000280: 0195 24bf 78c9 5b3f db84 f43f c27f 3640
00000290: 4d5c 193f 901e 82be 2dfa a13e 1748 fc3f
000002a0: bee4 d23e 6537 5ebd 7255 08bf 9b16 0d3f
000002b0: 6aec 1bc0 accf b13e 34b8 2040 6062 97be
000002c0: ee1d 3ac0 4cdd 55be 9466 fc3f e7cd a9bf
000002d0: ef92 993e f010 6cbf 33f7 7e40 0d8b e6bf
000002e0: 1fc2 12be 86d8 c13f 15f2 1f40 989d 153e
000002f0: 2f79 10c0 2ff0 b13f baa0 3440 994f 7c3f
00000300: 2a2f 2ac0 b9ff 83bf c007 18bf 77f9 cbbf
00000310: 799e 033f fe57 613f 2b84 a33f b7db e03f
00000320: cbef 10bf 8508 1fbf 4c46 edbf b012 34bd
00000330: 40f8 4a3f 9ab6 98be e2ed b83f c7cf 80bf
00000340: 8cd9 31bf 7674 d53d 1f0e d43e 355f e5be
00000350: be12 fdbe c036 c6be 6fba 96bf 2fa6 813f
00000360: 940c 613e 088c e43e ae75 7f3f 1d89 433f
00000370: 2796 bfbf ac81 7abf e0af a43f b96d 76bf
00000380: 8f0c 9fbf fc21 36be 2576 1dbf 9cce d03f
00000390: 8dc7 8fbe 13ab 88bd 42da fbbd a8d0 6d3e
000003a0: d651 1cbe 8ab5 463e ba5f 653f 5aa8 623f
000003b0: 91c1 953e bb7c 303f 3d48 ce3e 85d3 70bf
000003c0: 1113 74bd 4e78 323d 837b 8e3d 0112 63be
000003d0: bc87 64bd c2e1 223d bc68 be3d d883 4e3d
000003e0: 16db ebbc 851a 6fbe e71d 3f3f 02a2 8f3e
000003f0: 48bd 623f 810c 31bf 7651 81bf 2f41 9c3e
0.36678943 0.047261823 0.21562824 0.22114938 0.63629985 -1.8066089 0.9308364 -1.8979878
-0.7865862 -0.5176907 -0.6435722 1.2428583 -4.1201954 -0.27660754 -0.50553757 -3.3769474
0.62087995 -1.0054009 -0.6809804 0.8992486 2.1216917 1.0234532 2.6039429 -1.3170037
-2.390311 -0.7319942 -0.028607205 1.3012624 -0.9297575 -0.58750445 -1.5698925 0.5022022
-2.3042574 1.16032 -0.0920782 -1.8895416 -2.0231788 2.2632666 1.1922268 0.18708669
0.952288 -0.28853503 -1.7836311 1.0502688 0.78614277 0.98960865 -1.0875933 -0.70298743
1.5847824 1.1622105 1.0441351 0.11881812 0.6659086 -0.14994001 -0.20696525 0.53960425
-0.21445598 0.5385049 -0.4946769 0.2273392 -1.1028339 -0.90075684 1.1938068 0.6537366
-0.927267 -1.434545 -0.8948727 0.19667396 0.39269948 -3.2619128 0.85852313 -3.433338
-0.48146817 1.9417305 -1.7529261 -1.6218202 -1.9052597 1.3418726 1.438115 -1.5690973
-0.7229109 -1.9409153 0.40847892 0.5279517 1.3247044 0.12939057 -1.7647967 0.23085922
1.3556762 -0.8197119 2.289229 -0.48765773 -1.6511842 1.9800991 1.8090996 -1.4912403
0.07465073 2.8381693 1.4618913 1.040997 -1.0253165 2.0650163 0.0510133 -0.42506266
-0.03296306 -0.070183195 -1.8645688 1.5812557 -0.17938283 1.9183111 -1.3226098 0.5646997
0.46336624 -1.761244 1.5336585 -1.6105609 -0.73190296 1.0821615 -0.4420619 -1.832112
0.6092132 -0.24518834 1.0233315 -0.02530207 0.1367447 0.32300118 -0.7496621 0.12066014
0.31103128 -1.293744 -0.27538568 1.133666 1.3214679 0.037830602 -0.7679671 1.4372221
-1.0545763 2.7291229 -0.2098521 -1.3259797 -0.24535993 -0.06926175 0.29485855 -0.42841497
0.45931295 0.89718217 -1.453441 1.2399131 0.15423056 -2.4003258 -1.9112077 0.92229736
-0.74094224 2.113775 -0.25574356 0.17507923 -0.94145656 0.6952906 0.42198473 -0.7450131
-0.6428986 0.8585429 1.9103044 2.8515477 0.59906465 -0.25413942 0.3163618 1.97095
0.4119014 -0.054252047 -0.5325538 0.5511262 -2.4363046 0.34728754 2.5112429 -0.29567242
-2.9080768 -0.208852 1.9718804 -1.3265961 0.29994914 -0.92213345 3.9838378 -1.8011185
-0.14331864 1.5144203 2.4991505 0.14610898 -2.2573965 1.3901423 2.82231 0.98558956
-2.6591287 -1.0312415 -0.59386826 -1.5935506 0.51413685 0.8802489 1.277471 1.7567052
-0.56615895 -0.62122375 -1.8537078 -0.043963134 0.7928505 -0.29826814 1.4447596 -1.0063409
-0.69472575 0.10422604 0.41417024 -0.447992 -0.49428362 -0.38713646 -1.1775645 1.012884
0.21977454 0.44638085 0.9978894 0.76381093 -1.4967698 -0.97854114 1.2866173 -0.96261173
-1.2425708 -0.17786402 -0.615084 1.6313052 -0.28081933 -0.06673255 -0.12297489 0.23224127
-0.15265593 0.19405189 0.8959919 0.88538134 0.29249242 0.68940324 0.40289488 -0.94072753
-0.059588496 0.043571763 0.06957152 -0.22174837 -0.05579351 0.03976608 0.0929732 0.050418705
-0.028790992 -0.2334996 0.74655 0.2805329 0.8857007 -0.69159704 -1.0102985 0.3051848

weight_hh f4 [30, 10]
00000000: 3c11 31bf de87 03c0 d237 e5bd da0a 823e
00000010: 6b1e b03e d806 8d3d 38ae 90be d1c0 6c3f
00000020: e5a2 643f 01a3 28bf 0ba4 c33f 597f 993f
00000030: 6df3 80bf f72f a83d 087c 173f 34f8 62bf
00000040: ddd8 3c3f 0379 cebe 8915 6bbe cbc4 8abf
00000050: f65b f4bf aae4 d53c ff2a f3bf 56b3 80bf
00000060: 393a ffbf 417b 7ebd b654 8dbd 6e9a 443f
00000070: bf57 dbbf 8892 58be f052 ec3e afbd 133e
00000080: 46a7 98bd f074 adbf 3f86 74be 49ec 29be
00000090: 4562 55be afc2 003e 50af 04be e4da 80bf
000000a0: b0ac 763f 70e0 adbe 131c babf 1037 1d3e
000000b0: ef5c 5dbf eb6f 1a3f 1e61 44bd a08d 56bf
000000c0: d80a 8c3e 8e6e 3fc0 af71 543f 6a4d c6bd
000000d0: 2b6c cfbf f6c7 5f3e 00de 32bf 8a2f adbf
000000e0: 595b 27be a59c 523f 3cbc 74be 9627 24c0
000000f0: 8196 5c3f 855e 073d 1424 e4bf ecee c63e
00000100: 55df 66be 371a 023e 39a9 91bf 17ab 70be
00000110: 2885 403e e75d 57c0 c82d 0140 6723 1fbf
00000120: 384f 84bf 8ed3 0b3f 8b92 4e3e cbb7 b83c
00000130: c000 30be d882 2abe 752c 16bf 798a 7bc0
00000140: ea04 94bf 16b4 21bf 106b d93f 9ca3 ad3e
00000150: b274 193f 063f b3be 97fb 51be 87fc 383c
00000160: fbfa e2bd 9fab 47c0 a338 3f3e 5806 86bf
00000170: e1d8 04c0 0427 84bf a6a6 c33f 90da d03f
00000180: e8b7 0ebe 5c44 34bf 1b41 4f3e dae4 f93e
00000190: 38a7 413e 02f8 13bf d799 6d3f 2155 353e
000001a0: f4b5 e1be 000e 4fbf 55e8 be3f f00c c73e
000001b0: 56a3 913f 2b15 2b40 b598 1f40 fc9e 413e
000001c0: 6d44 babf 0560 55bf 096d 013f 5840 54be
000001d0: ccc5 fcbd 351b 483f 6f1d 603e 375f 45bf
000001e0: 6427 963d 20b6 a2be 2f07 3f3f 815e abbc
000001f0: 9e37 b33e dbeb a5bb 4b44 1b3e 6edc f6bd
00000200: 1843 363e 1183 61bd 157b 413f 552e f13d
00000210: bbe5 b5be 61ca b7be a54f 8ebf 0314 27bf
00000220: 055d 9ebe e873 c53e e46f 8e3e 6a76 03bf
00000230: 95c3 da3e aa48 91bd 015e ce3e 7d51 b33e
00000240: 5aaa 05bf bdcf 4cbf c606 78be f5e9 ea3e
00000250: 72df 293d eb71 4fbf fb88 b63f fa1b a7be
00000260: eeae 6fbe 42b6 463e 311d 15be 315d 23be
00000270: 67fe e0bc 24c2 163f 773b a23e f573 f7be
00000280: dcf0 8d3f 5f98 413e 5a5e 03bf 248b 4f3d
00000290: 6ce0 8dbe 97ff 673e 8996 c4be c97c a0be
000002a0: 153a e33e c53b 90bf b850 803f af14 a53e
000002b0: 3e28 8bbf 0231 e2be 97a9 27bf 36cd 57bd
000002c0: f9d5 f4be 7b59 973d db0b b53e b228 39bf
000002d0: 93cf 873f 4f9d 2e3f 233e ba3f 7f70 613d
000002e0: fc3d 8bbf daa0 d3bd 1c1f b1be e898 5cbe
000002f0: 2e6d c63e da94 72be 265e 41be 1797 1f3d
00000300: f1ee 203f e97a 1ebd c4e7 7d3d aac9 693d
00000310: 80dc c5bd 8e65 193d c1fe 9d3b 04f9 a0be
00000320: a75a 0740 6b0d a63b 3579 f13e 0016 643f
00000330: ceb9 86be 3d8b 6fbf f3f1 ce3d 4655 93bf
00000340: cc77 9bbe 8b2c f1bd 09c6 24bf b722 2abf
00000350: 5fa6 84be bccf 33c0 d207 cfbf 6ea0 9bbe
00000360: 8155 b1be 7499 333f 9e4c 9cbe 5306 af3f
00000370: 7134 a83f 7b5d 18bf 95b9 b43f 7bcb 933e
00000380: 7dd3 963f da8f e9bd a7d2 fcbe 9925 1dbf
00000390: bf1d 9f3f 5404 1c3e a2ef e43e d4b1 54bd
000003a0: 701d 84bf e9a8 aebf 063b 49bd 52a8 26bf
000003b0: 1275 963d e2d1 21bf dcac 44ba 4fee 25c0
000003c0: 4ce0 643f 8476 963f 0666 b9bf 1c8f 993f
000003d0: 0c88 42bf 43e2 67be acca e4be c116 d3be
000003e0: 9365 e3be bbde 6cc0 b8e0 373f b5f3 d13e
000003f0: 89a1 28be e49a 833f 1be4 943f 0386 45c0
-0.6916692 -2.0551677 -0.111922875 0.25398904 0.34398207 0.06886071 -0.28257918 0.92481714
0.8931106 -0.65873724 1.5284437 1.1991988 -1.0074288 0.082122736 0.5917363 -0.8865998
0.7376841 -0.403267 -0.22957434 -1.0841306 -1.9090564 0.026110012 -1.8997496 -1.0054729
-1.9939643 -0.062129263 -0.06900923 0.7679814 -1.7136153 -0.21149647 0.46157026 0.14427827
-0.0745378 -1.3551311 -0.23879336 -0.16594042 -0.20838268 0.12574266 -0.12957501 -1.00668
0.9635725 -0.33960295 -1.4539818 0.15353036 -0.8646993 0.60327023 -0.04794418 -0.8380985
0.27352023 -2.9911227 0.8298597 -0.09682734 -1.6204885 0.21853623 -0.69869995 -1.3530133
-0.1634344 0.8227027 -0.2389993 -2.5649161 0.8616715 0.033049125 -1.782351 0.38854158
-0.22546132 0.12705313 -1.1379768 -0.23502766 0.18800795 -3.3651063 2.0184193 -0.62163395
-1.0336676 0.5461968 0.20173089 0.022548577 -0.17187786 -0.16651475 -0.58661586 -3.9303267
-1.1564 -0.63165414 1.6985798 0.33913887 0.5994369 -0.3500902 -0.2050613 0.011290676
-0.11083027 -3.11985 0.18673949 -1.0470686 -2.0757372 -1.0324407 1.5285232 1.63167
-0.13937342 -0.7041681 0.2023968 0.48807412 0.18911445 -0.57800305 0.92812866 0.17708255
-0.44084132 -0.8088074 1.4914652 0.38877058 1.1377971 2.673167 2.4936955 0.18908304
-1.4552132 -0.8334964 0.50557 -0.2072767 -0.12342414 0.78166515 0.21886228 -0.7709841
0.07331732 -0.31779575 0.74620336 -0.020919086 0.3500337 -0.0050635166 0.1516277 -0.120537624
0.17799032 -0.055056635 0.75578433 0.11776415 -0.35526833 -0.3589659 -1.1118056 -0.6526491
-0.30930343 0.38564992 0.2781974 -0.5135256 0.42727342 -0.07093938 0.40306094 0.35023108
-0.5221306 -0.80004483 -0.24221334 0.4588162 0.04147286 -0.810332 1.4260553 -0.32638532
-0.23406574 0.19405463 -0.14561917 -0.15953518 -0.027465058 0.58889985 0.31685993 -0.48330656
1.108913 0.18905781 -0.51315844 0.050669804 -0.27710283 0.22656094 -0.383961 -0.31345204
0.4438025 -1.126824 1.0024633 0.32242343 -1.0871656 -0.44178015 -0.6549315 -0.05268594
-0.47819498 0.07390114 0.35360608 -0.7232772 1.0610222 0.68208784 1.4550213 0.055038925
-1.0878291 -0.103334144 -0.34594047 -0.21542704 0.38755172 -0.23689595 -0.18883571 0.03896245
0.62864596 -0.038691435 0.061988607 0.057077087 -0.09661198 0.037450366 0.004821629 -0.31439984
2.114908 0.0050675175 0.47162786 0.8909607 -0.26313633 -0.93571836 0.10104742 -1.1510398
-0.30364835 -0.11776074 -0.6436468 -0.6645922 -0.2590818 -2.809554 -1.6174262 -0.30395836
-0.34635547 0.70156026 -0.30527204 1.3673805 1.3141004 -0.5951764 1.4119135 0.2886618
1.1783291 -0.11404391 -0.49379465 -0.61385494 1.2430953 0.15236026 0.44714075 -0.051927403
-1.0321484 -1.3645297 -0.049128555 -0.65100586 0.07346548 -0.6321088 -0.00075025647 -2.5926702
0.8940475 1.1754918 -1.448426 1.1996799 -0.7598884 -0.22644906 -0.44685876 -0.41228297
-0.44413432 -3.7010944 0.7182727 0.41006246 -0.16467871 1.0281644 1.1632112 -3.0863044

bias_ih f4 [30]
00000000: 6eef 0bbf af6a aebe 7dc5 703f 8b61 3abf
00000010: b4ca 8cbf a521 57bf 3cd0 97bf 596d 9cbf
00000020: 4f62 383f feea 17bd 7f61 aa3f 0774 21bf
00000030: f20b b03d 0253 bbbf ce94 95bf be69 82bf
00000040: b677 8abf 193e bbbf c200 23bf 5944 9abe
00000050: d1e0 913e 03c9 543f d08d 01c0 bbb8 4b3e
00000060: 404e a2be 8c1e 83be a18f d23b ca62 143f
00000070: a708 a13d 15fd 01c0
-0.54662216 -0.34065768 0.94051343 -0.7280509 -1.099936 -0.8403571 -1.1860423 -1.222087
0.72025007 -0.03708934 1.3311003 -0.6306767 0.085960284 -1.4634707 -1.1686037 -1.018852
-1.0817783 -1.4628326 -0.6367303 -0.3013027 0.28491834 0.8311922 -2.0242805 0.19894688
-0.31700325 -0.25609243 0.0064258133 0.5796324 0.078629784 -2.031072

bias_hh f4 [30]
00000000: fc30 c5be 69d4 e3be b7e2 8a3f 93d4 4dbf
00000010: 2253 d0bf 0f51 14bf 2f12 6dbf c529 a1bf
00000020: c59a 213f c3cc 8c3e f96b a23f 8fab 0bbf
00000030: c874 b9bd 06de b6bf 0e7f b3bf 1488 2ebf
00000040: d345 80bf 83a8 9bbf 74e7 05bf 4fdd a8be
00000050: a8d1 a0be 40fc 09bf 3cd5 2fc0 00dc 093e
00000060: 4fc1 28be b753 52be a0f0 1c3f 191d 533f
00000070: cc37 1abd b66b 10c0
-0.38513935 -0.44497994 1.0850438 -0.8040249 -1.627537 -0.57936186 -0.9260587 -1.2590872
0.63126785 0.2749997 1.2689201 -0.5455865 -0.090554774 -1.4286506 -1.4023149 -0.6817639
-1.0021309 -1.2160801 -0.52306294 -0.32981345 -0.31409955 -0.5390053 -2.7473898 0.1346283
-0.16479991 -0.20539747 0.61304665 0.82466274 -0.03765087 -2.2565742

weight f4 [10, 20]
00000000: 5978 863f 580f 843f 5e4b 4bbf 4172 a2bd
00000010: b834 5dbf c942 07bf b3c4 023e 5bed 723e
00000020: 81e1 efbf 3710 0940 099e 323f fed8 b7be
00000030: 9ad4 19c1 a57a 1bbf cd74 ddbe f3be 12c0
00000040: 6af2 bf3f 8b31 2940 8526 f5bf 2cbf 82bf
00000050: 8406 b4bf 3177 36be d2c6 8e40 a7a2 df3c
00000060: c736 9f3e 0484 163b f793 b03c 5f8b fbbd
00000070: fef2 873e 3471 f13f a0af 4fbd c7c3 03bd
00000080: 02d2 283f b1e6 6d3d 510d 0dbd a873 ebbf
00000090: 2750 8e3d ac2f bec0 4bce 0b3d 43de bb3c
000000a0: f522 08bf cc93 55be 6341 12c0 c42f 2dbd
000000b0: 24ec a63e 51d3 f73d 7c3e c53d e3f1 54bd
000000c0: e42f c23e c3ce a8c0 af9a 0c3f 3ff0 743e
000000d0: 2020 c13f 0842 aebe 9563 0dbf 3fb3 1940
000000e0: c656 093e e173 7e40 ce8f d5be e61b f0be
000000f0: 7fd3 793f 9249 98bf 5604 d33f 0ca6 313f
00000100: 7195 f73f 11c7 883f 0892 5c3e 3e41 143f
00000110: 08a4 0b40 7669 cfbe 8fe2 58be 9536 e0be
00000120: cd36 d3c0 08bf 01bf 93de ad3e 3bfc 37c0
00000130: 8044 863e 2b20 e83f 361e 8ebf 1de1 3a3e
00000140: 4e23 d83c 0fd9 0cc0 a4b2 4a40 11c9 0bbe
00000150: 75c2 1540 3ff4 023f af23 803e 8d5d 16bf
00000160: 08ce 43c0 da4f be3d 35c9 70be 73b9 7b3e
00000170: fdf2 f3c0 50a3 c7bd 9691 8c3e b283 a8bf
00000180: 1703 1ebd 9490 823f 6857 55be b603 573b
00000190: f833 c33f 5037 10be f141 3cbf 9240 6b40
000001a0: 0438 0540 483a d43f 1fe1 1d40 1715 963f
000001b0: 5960 8bbf 0271 e1bf ef76 883e c069 48bf
000001c0: ca75 a13f 8f9d 99be 7660 19bf b372 f43e
000001d0: 76de 2abf d11c e83f 3d86 333f 1605 a6bd
000001e0: 03e4 a8bd 8026 613e 1af7 86c0 607a 2ebd
000001f0: 4695 a3be 0afd 52bd e052 87bd bfef 203d
00000200: 76fc cbbe 84f8 23c0 b58d d3bd 7743 33bd
00000210: 7845 49c0 b583 343d b161 b93d f4e9 6140
00000220: ba16 91bd b959 ae40 c12f c3bc 1b5b 063d
00000230: 4e8c 3d40 b4de c3bf 1174 24be 9e97 f63f
00000240: 5b3c 4d3e 37f8 b93f 3978 ca3f b747 0fbf
00000250: d59f a43e 6510 17c0 592e 46bf 9f1c 1ebf
00000260: de16 203f 9abb 4dbf 9625 fd3d e319 d0bf
00000270: cbf3 313e 6bcc 813e aa69 6dbf f723 cebf
00000280: 3169 2f40 af85 863e b342 11bf 056d 843e
00000290: 80f7 eb3e 2f6e d3bf acc5 1e3f 2c35 84bf
000002a0: 117c 953e 71ec cfbf 49d5 9fbe 56b8 4abf
000002b0: e504 7ac0 fd83 c2bf e08f db3e b358 63c0
000002c0: 333c c43e 808e 0bbf c27a 483f 314a db3e
000002d0: 5182 d4bf b5a5 0a3f 5af4 0440 fc79 a03e
000002e0: cab7 d3bf 9594 90bf a096 003f ff10 cc3f
000002f0: 0550 8240 70f7 c3bf a415 00bd feca a53e
00000300: 7258 5ac0 f7e6 2abe 4e1c 27be b03b a3bf
00000310: 0b7d 4dbe 0989 873f cced 793e da21 62be
1.0505477 1.0317183 -0.79411876 -0.079319485 -0.8640857 -0.5283628 0.12770347 0.23723356
-1.8740693 2.1416147 0.6977239 -0.3590774 -9.614405 -0.60734016 -0.43253174 -2.2929046
1.4995854 2.6436489 -1.915238 -1.0214591 -1.4064488 -0.17818905 4.46177 0.027299238
0.3109648 0.002296687 0.02155493 -0.12282442 0.26552576 1.8862672 -0.0507046 -0.03216913
0.65945446 0.058081333 -0.034436528 -1.839467 0.069488816 -5.9433193 0.034132283 0.022933131
-0.5317834 -0.20857161 -2.285241 -0.04228188 0.32602036 0.12100852 0.096310586 -0.051988494
0.37927163 -5.2752395 0.5492353 0.23919772 1.5087929 -0.34034753 -0.55230075 2.4015653
0.13412008 3.9758227 -0.41711277 -0.46896285 0.9758834 -1.1897452 1.6485698 0.6939399
1.9342481 1.068575 0.21540082 0.5791205 2.1818867 -0.40510148 -0.21180175 -0.43791643
-6.6004395 -0.50682116 0.33958873 -2.87477 0.26224136 1.8134817 -1.110297 0.18249936
0.026384022 -2.2007482 3.1671534 -0.1365092 2.3399937 0.5115394 0.25027224 -0.587365
-3.0594501 0.09292574 -0.23514254 0.24582462 -7.6234117 -0.09747946 0.27454823 -1.316519
-0.038577165 1.0200372 -0.20834124 0.0032808608 1.5250235 -0.140836 -0.7353812 3.675816
2.081544 1.6580286 2.4668653 1.1725186 -1.0888778 -1.7612612 0.2665324 -0.7828636
1.2614071 -0.3000302 -0.5991281 0.4774376 -0.667457 1.8133794 0.70126706 -0.08106439
-0.08246615 0.21987343 -4.217664 -0.042597175 -0.31949824 -0.051510848 -0.06607604 0.03929114
-0.3984105 -2.5620432 -0.10329763 -0.04376551 -3.144865 0.044070918 0.09051836 3.5299044
-0.07084413 5.4484525 -0.023826482 0.03280173 2.9616885 -1.5302339 -0.16059901 1.926502
0.20042555 1.4528874 1.5817939 -0.55968803 0.32153192 -2.3603756 -0.7741447 -0.6176242
0.6253489 -0.8036438 0.123606846 -1.62579 0.17378156 0.2535127 -0.92739356 -1.6104726
2.7407954 0.26273867 -0.567424 0.25864425 0.46087265 -1.6518 0.62020373 -1.0328727
0.29196218 -1.6244031 -0.3121741 -0.79187524 -3.9065487 -1.519653 0.42883205 -3.5522888
0.38327178 -0.5451431 0.78312314 0.4283004 -1.660227 0.541591 2.077414 0.31343067
-1.6540463 -1.1295344 0.50229836 1.5942687 4.072268 -1.5309887 -0.031270638 0.32381433
-3.4116483 -0.16689669 -0.16319391 -1.275259 -0.20067231 1.0588695 0.24407119 -0.22083226

bias f4 [10]
00000000: 4020 9dbe 4fac 8dbf 0e7d c0bf 5191 74c0
00000010: f921 febf e6f7 0ac0 b480 433f f80b 09c0
00000020: ced9 98bf 25a2 32bf
-0.30688667 -1.106821 -1.5038164 -3.8213694 -1.9854118 -2.1713805 0.7636826 -2.1413555
-1.1941469 -0.6977866

weight f4 [1, 10]
00000000: b3eb 10c0 00ea dfbf a9d3 7ebf 73d1 d73f
00000010: 4dfb c53f 51ee 243e 109c ebbf 3351 443f
00000020: 1465 a7bf c2a2 ad3e
-2.264386 -1.7493286 -0.9954172 1.6860794 1.5467316 0.16106535 -1.8407001 0.766864
-1.3077722 0.33913237

weight f4 [29, 10]
00000000: 6553 7b40 b9df 46bf a5a6 1440 c85a 973f
00000010: 8fe6 2340 d782 44bf 7f68 a440 f463 f03f
00000020: 9af4 a3c0 f2f1 e3bf 4348 91bf 172e 1bbf
00000030: 1aad 87bf 2364 3140 4f6e 3740 10a8 1fc0
00000040: 424f db3f cafc 59c0 b86c 34bf 5231 5d3d
00000050: d685 abbe dc85 6d40 61cb 88bf 2fd3 af40
00000060: e053 ec3f f4fe 2bc0 880b cdc0 1302 ecbf
00000070: e120 c83f 2e82 a73f 3b37 cbbe 8b0f 4ec0
00000080: 1cc6 a63e f6e0 80c0 2a1b 70bf 3ddd 2bc0
00000090: d6a8 61c0 39e0 a3bf 1fbb 4dbf c70b 46bf
000000a0: 1f44 10c0 9aa6 9d40 2e2a a73e 99a0 79c0
000000b0: 0ce0 713f d8af 3d3f 4c22 9240 5c15 1440
000000c0: e2e8 8a3f 12a7 afbe 78de 0bbf 5f09 c1be
000000d0: 2971 31be 94e8 6bc0 cba5 1640 4cd7 3e40
000000e0: dc8c aabf 3fc7 d3bf 4cd8 80bf ecf2 d23f
000000f0: 6dda 443f d0ba 1bc0 902e 5fbf a0a7 8140
00000100: dcb2 81c0 9633 5cc0 2e42 8dc0 26cb 2dc0
00000110: bf76 3b3f 5803 8a3e bdcb 68bf 1dc8 c540
00000120: 92e3 4b3f 2d45 0dbf 9553 e0c0 b0ef ba40
00000130: e180 c73f 57b0 eb3f 3257 e33f 07ac a9bf
00000140: 0437 2cbf ed23 ab40 bb95 963e bb19 ebbf
00000150: c4e1 a2c0 ea65 23c0 311b 57c0 b649 98c0
00000160: 1d05 943f 4afd c2bf e40d 98bf 0f2d d83e
00000170: cc2e 9f3e fb3e ee3f 0dcf d43f 03da 0640
00000180: 9087 c53f 49c1 7640 df77 16c0 36f7 2340
00000190: 14f2 0c3f 0592 abc0 c677 e23f 7ef1 b2c0
000001a0: bdca 7ac0 b632 7fc0 59d7 1d40 da5c 8340
000001b0: 93ce ed3e 60a1 1ec0 de56 8a3d a2da a03f
000001c0: c121 0340 bc3a 9cc0 78bf bdc0 ce1e dc40
000001d0: 1cca 92c0 5e98 a240 8504 98bf bd09 22c0
000001e0: 91db 033e 1778 59c0 eb33 773e 326c 8940
000001f0: 11db dfbf 0d47 5940 5e14 99c0 82ed e73f
00000200: aefd dabf 2629 0fbf de68 86bf 6eb8 09bf
00000210: 756a 67bd f514 6cc0 1cf6 81c0 26c1 66c0
00000220: 8d92 7a40 1558 0ac0 9e62 4e3f 0021 06bf
00000230: a907 6dbf 1b3e f8bf 4f64 95be ab8d 7dc0
00000240: 900e 78c0 2a34 4440 e5d8 3a40 3f9a 5740
00000250: bed2 3abf bdec 17bf b2bf 8ebf 007b ba3e
00000260: 2c09 9a3e 8931 99c0 a5c9 2240 ee83 a9c0
00000270: 3ec6 1740 3fb5 0740 6cdf 77bf d4a2 2140
00000280: a8ec 0bc0 9e74 5140 2866 643f 074a 35c0
00000290: aad9 3540 587a 74c0 7f47 79c0 8516 4cbf
000002a0: a2be 273f bed0 12bf 1a87 703f ab5a d9c0
000002b0: 21ea ba3f fc07 0b3f fb88 8dbf bc01 7ec0
000002c0: fa43 b2c0 802b a840 3f5b 06c0 af1e 15bf
000002d0: 4665 9abf c8c2 ed40 b3ea 95bf 9d89 8c3f
000002e0: ef0d 22bf 2729 083e ba59 ca3f ea22 5fc0
000002f0: 15dc 6540 2555 c13f fcb6 e5bf 3429 9540
00000300: 7642 663f 6120 9a3f 05b1 1340 79e2 1b40
00000310: b8de 98c0 adbd 3c40 b1b1 d03b ba5a f83e
00000320: 4424 00bf 7679 3340 b650 22bf 6379 2b40
00000330: cf7f 92c0 05f2 2a40 5b86 9cc0 d28d 13c0
00000340: df3f 1f40 1c6a c03e c42c 11bf 0a01 d5bf
00000350: 710b a9bc 204b 2940 12b7 c240 fbe7 aac0
00000360: 0bd2 54c0 b026 9e40 a047 cbbf 9fa4 4840
00000370: 49bf 713f 67e3 4e40 65e5 9bbf a6ca cec0
00000380: 57dc ccc0 6a0c 5b40 9d4a 5040 8690 6ac0
00000390: 4acd 0a40 aaca 9fbe bb4f 04c0 24d2 65c0
000003a0: 5e0e c7be c947 0840 7ccf 8ebf 1317 2240
000003b0: 4ca5 a73f 3283 ed3f 03c6 ca3f ad78 22c0
000003c0: f5ae 323f 7377 a1c0 ba5b 8c3f f5a8 b4c0
000003d0: 5e47 9cbf 8fac eabf 3b90 59c0 953e ca40
000003e0: b235 0a3f bca4 2f3f d0eb 2340 d636 19c0
000003f0: d55c c0bf 04ae 9a3f 1301 783e d85e 0840
3.926965 -0.77685124 2.3226712 1.1824579 2.5609472 -0.76762146 5.137756 1.8780503
-5.1236086 -1.7808211 -1.1350178 -0.606172 -1.0599701 2.7717369 2.8661077 -2.4946327
1.7133563 -3.406054 -0.7047839 0.054002114 -0.33500546 3.7112951 -1.0687066 5.4945292
1.8463097 -2.687436 -6.4076576 -1.8438133 1.5635034 1.3086603 -0.39690575 -3.2196987
0.3257302 -4.027461 -0.9379145 -2.6853783 -3.52593 -1.2802802 -0.8036365 -0.7736172
-2.2541578 4.926587 0.32649368 -3.900427 0.94482493 0.7409644 4.5666866 2.3138037
1.085232 -0.34307152 -0.54636335 -0.37702462 -0.17328323 -3.6860704 2.3538692 2.9818907
-1.3324237 -1.654518 -1.0066009 1.6480384 0.7689579 -2.4332771 -0.87180424 4.051712
-4.0530834 -3.4406486 -4.4143286 -2.7155242 0.7322807 0.26955676 -0.9093588 6.180678
0.7964412 -0.5518368 -7.010203 5.8417587 1.5586206 1.841319 1.7760985 -1.3255624
-0.6727145 5.3481355 0.2941111 -1.8367227 -5.0900593 -2.5530953 -3.3610346 -4.758998
1.156406 -1.5233548 -1.1879239 0.42221877 0.3109039 1.861297 1.6625687 2.1070564
1.5431995 3.8555472 -2.3510664 2.5619636 0.5505688 -5.3615746 1.7692802 -5.591979
-3.9186242 -3.9874701 2.4662688 4.1050844 0.46446666 -2.4785995 0.0675485 1.2566721
2.0489352 -4.8821697 -5.9296227 6.8787603 -4.5871716 5.0810995 -1.1876379 -2.5318444
0.12876727 -3.3979547 0.24140899 4.2944574 -1.7488729 3.3949616 -4.783736 1.8119357
-1.7108667 -0.5592216 -1.0500753 -0.5379704 -0.05649801 -3.688779 -4.0612926 -3.6055388
3.9151947 -2.161626 0.8061923 -0.52394104 -0.92589813 -1.9393953 -0.29178092 -3.9617717
-3.8758888 3.0656838 2.9194882 3.3687894 -0.7297782 -0.5934561 -1.1152251 0.36421967
0.30085123 -4.787297 2.5435574 -5.2973547 2.3714747 2.1204374 -0.9682529 2.5255632
-2.1863194 3.2727427 0.8921838 -2.8326433 2.8414102 -3.8199673 -3.8949888 -0.7972186
0.6552526 -0.57349765 0.9395615 -6.792318 1.46027 0.5430906 -1.1057428 -3.9688559
-5.570798 5.25531 -2.0993192 -0.58249944 -1.2062156 7.430027 -1.171225 1.0979496
-0.6330251 0.13296948 1.5808632 -3.486506 3.5915577 1.5104109 -1.7946467 4.6612797
0.8994516 1.2041131 2.3076794 2.4356978 -4.7771873 2.949077 0.0063688387 0.4850672
-0.50055337 2.8042884 -0.63404405 2.6792839 -4.5781016 2.6710217 -4.891401 -2.305531
2.4882734 0.37580955 -0.5670893 -1.6640942 -0.020635339 2.6452103 6.0848475 -5.340818
-3.32532 4.9422226 -1.5881233 3.1350477 0.94432503 3.2326295 -1.2179381 -6.4622374
-6.401897 3.4226327 3.254554 -3.665071 2.1687799 -0.31209308 -2.0673664 -3.590951
-0.3887815 2.1293814 -1.1157069 2.5326583 1.309732 1.8555663 1.5841678 -2.5386155
0.69798213 -5.045831 1.0965493 -5.6456246 -1.220928 -1.8333911 -3.3994281 6.3201394
0.5398818 0.6861074 2.5612679 -2.393972 -1.502833 1.2084355 0.2421916 2.1307888

bias f4 [29]
00000000: 4db0 afbf 24d0 9040 0ac5 43c0 1865 dd3f
00000010: ce55 9ebf fb7f 9e40 fe4e 23c0 ce33 a0c0
00000020: 977f 50c0 0119 593f 8f48 93c0 8f2a b9c0
00000030: 2d6d 0f3f 8aa1 d1be dbde 973e 9e5b f2be
00000040: bfbc 18bf 19b5 afc0 7e39 bcbf 9ac0 66bf
00000050: 5355 7fbf f1c9 38c0 f7c5 93c0 2c58 833f
00000060: 5889 84c0 2893 7840 93c7 c3c0 31a8 19c1
00000070: 3505 d1be
-1.3725678 4.525408 -3.0589013 1.7296476 -1.2369936 4.9531226 -2.5516963 -5.006324
-3.2577875 0.8480378 -4.6026073 -5.786445 0.56025964 -0.40943557 0.29662213 -0.47335523
-0.59663004 -5.4908566 -1.4705045 -0.90137637 -0.9973957 -2.8873255 -4.6179156 1.0261283
-4.1417656 3.8839817 -6.118112 -9.603562 -0.40824285
