Homework Assignment 2/h2data-1/h3data/checkpoints/h10-bs16/encoder.pt (torch, 6683 bytes, 5 tensors)

weight f4 [29, 10]
0	0xbefc66ad	-0.49297085
1	0xbecb5a43	-0.39717302
2	0x3e9ec235	0.31007543
3	0x3f32b4d2	0.6980716
4	0xbf853b10	-1.040865
5	0xc03a8a29	-2.9146826
6	0x3ee1e894	0.44122756
7	0x4034b438	2.8234997
8	0xbf56c698	-0.8389678
9	0x40233d18	2.5506039
10	0x3f5ef325	0.8708976
11	0xbcbf0513	-0.02331785
12	0x3e7fd801	0.24984743
13	0xbf35f623	-0.710787
14	0x3d3e30c0	0.04643321
15	0x3e2e170e	0.17000982
16	0x3eaaf7fa	0.33392316
17	0xbe8a6398	-0.2702911
18	0xbea915a5	-0.33024326
19	0xbcd77522	-0.02630097
20	0xbf2da204	-0.6782534
21	0xbf35756f	-0.70882314
22	0x3f16eb81	0.589531
23	0xbf4cd3c7	-0.80010647
24	0x3e8e3d41	0.27781108
25	0xbec5355c	-0.38517272
26	0xbee27854	-0.44232428
27	0x3e3f070a	0.18655029
28	0x3e5ceaad	0.21573897
29	0xbeb311d2	-0.34974533
30	0xbe8337d5	-0.25628534
31	0x3ef67461	0.48135665
32	0xbd85e87f	-0.06538486
33	0x3e063ca2	0.13109067
34	0xbe7b66f0	-0.24550986
35	0xbf524d30	-0.8214903
36	0x3e1d96cf	0.1538956
37	0xbe9deca7	-0.30844614
38	0x3ea1316e	0.31483024
39	0xbe32e400	-0.17469788
40	0xbf1ddd2e	-0.6166562
41	0x3def5412	0.11685957
42	0x3dec01e3	0.11523797
43	0x3ed58617	0.41703865
44	0x3e8d9455	0.2765223
45	0x3f17c525	0.59285194
46	0x3df92bde	0.1216657
47	0x3b885d23	0.0041614934
48	0x3e9a2c9f	0.30112168
49	0x3f3706c8	0.7149472
50	0x3e834c5a	0.2564419
51	0xbf595833	-0.84900206
52	0xbeeb4049	-0.45947483
53	0x3e435c76	0.1907824
54	0xbe83195b	-0.25605282
55	0xbd15b2f6	-0.036547624
56	0xbbbd524a	-0.005777632
57	0xbe8f04e9	-0.27933434
58	0xbe57bd1d	-0.21068235
59	0x3d8f1bd6	0.06987731
60	0xbe49c897	-0.19705425
61	0x3f0014b1	0.5003157
62	0x3ebdb970	0.3705554
63	0xbe34ed43	-0.17668633
64	0x3c39ed04	0.011348013
65	0xbf50756a	-0.8142916
66	0xbe507243	-0.20356087
67	0x3cd1b763	0.02560014
68	0x3ec1e9c7	0.3787367
69	0xbf263953	-0.6493122
70	0xbedc6eb3	-0.43053207
71	0x3f1a1202	0.6018373
72	0xbdee4042	-0.1163335
73	0x3f240334	0.6406739
74	0x3eff03bd	0.4980754
75	0x3f081efc	0.5317228
76	0xbf12c53b	-0.573322
77	0x3ed1e9ac	0.4099859
78	0xbea43487	-0.32071325
79	0xbd4c4392	-0.049869128
80	0xbf495497	-0.786447
81	0x3f1065ff	0.56405634
82	0x3e3d2f25	0.18475015
83	0x3f01644f	0.50543684
84	0x3f01f70a	0.50767577
85	0xbe230a71	-0.15921952
86	0x3ede3e48	0.43406892
87	0xbe7ae2fe	-0.24500653
88	0xbe5b45f9	-0.21413411
89	0xbf1f5c0a	-0.62249815
90	0x3f3a5165	0.7278045
91	0xbdb7b684	-0.08970359
92	0xbe2c2977	-0.16812693
93	0xbf453324	-0.7703116
94	0xbd31f022	-0.0434419
95	0x3eda1e4a	0.42601234
96	0x3e9da25b	0.3078793
97	0x3ef3b597	0.4759948
98	0xbe79e563	-0.2440391
99	0x3e8e9092	0.27844673
100	0x3ed45834	0.41473544
101	0x3f83d869	1.0300418
102	0x3e9a7682	0.3016854
103	0x3f4f4f0c	0.8097999
104	0x3e39336b	0.1808602
105	0xbf2e352b	-0.6804988
106	0xbeadc56e	-0.3393969
107	0xbca4091d	-0.020023877
108	0xbe04d162	-0.12970498
109	0x3f0b2ec6	0.54368246
110	0xbe65c8bf	-0.2243986
111	0x3e121bc2	0.14268401
112	0xbf7a1da6	-0.9770149
113	0x3f422f6a	0.758536
114	0x3eb3568c	0.35026968
115	0xbeb31288	-0.34975076
116	0x3e46b1c3	0.19403748
117	0x3f0854c8	0.53254366
118	0x3e005b99	0.12534942
119	0xbf084d00	-0.5324249
120	0xbde18df6	-0.11013405
121	0x3eb6b15c	0.3568219
122	0xbe4c9991	-0.19980456
123	0xbe0ff678	-0.14058864
124	0xbd939977	-0.072070055
125	0xbec126c4	-0.37724888
126	0xbebfcc8c	-0.37460744
127	0x3ef8376a	0.48479778
128	0x3e45b964	0.19309002
129	0xbec87140	-0.39148903
130	0x3e1b9732	0.15194395
131	0x3ef97572	0.48722416
132	0x3e3f2d01	0.18669511
133	0x3e1f47af	0.15554689
134	0x3ead1f04	0.33812726
135	0xbe729b41	-0.23692037
136	0xbf1417f5	-0.57849056
137	0xbf0f51bb	-0.55984086
138	0x3e1d60d1	0.15368964
139	0x3d2d6df6	0.042341195
140	0xbd0ef410	-0.034900725
141	0x3ecf22b3	0.4045616
142	0xbe919293	-0.2843214
143	0x3e44211e	0.19153258
144	0xbdc24440	-0.09485674
145	0xbcc88bf5	-0.0244808
146	0xbefe12ec	-0.4962381
147	0xbdd99b7f	-0.10625362
148	0x3ebcd65a	0.36882287
149	0x3f0b1777	0.5433268
150	0x3eff5688	0.49870706
151	0xbcfd1be7	-0.030897094
152	0xbd8ddbf9	-0.06926722
153	0xbeb883f5	-0.36038175
154	0xbd6654c9	-0.0562332
155	0xbdc5b163	-0.096529745
156	0x3f6096bd	0.8773001
157	0xbe30ed6c	-0.1727807
158	0xbf021fc7	-0.5082974
159	0x3e95328e	0.29140133
160	0xbf79008b	-0.97266454
161	0xbea2b949	-0.31781986
162	0x3ec71a70	0.38887358
163	0xbc8ae3ba	-0.016954292
164	0xbd8718aa	-0.06596501
165	0xbea75dd7	-0.32688782
166	0x3f27c8fe	0.65541065
167	0xbe63fd8c	-0.22264689
168	0x3e878265	0.2646667
169	0x3b9c144a	0.004763161
170	0x3df14240	0.11780214
171	0x40015dd1	2.021351
172	0x3eb9b3de	0.3627004
173	0x3fa0e368	1.2569399
174	0x3f4174a0	0.7556858
175	0xbf980015	-1.1875025
176	0x3f0bcebc	0.54612327
177	0x3f1d3485	0.61408263
178	0xbf894354	-1.0723672
179	0xbf3d4486	-0.73932683
180	0xbf362b5c	-0.7115991
181	0x3e46ac37	0.19401632
182	0x3ec7c334	0.39016116
183	0xbb600384	-0.0034181783
184	0x3ee08c3b	0.43856987
185	0x3f32e025	0.6987327
186	0xbe57613c	-0.21033186
187	0xbe373f3d	-0.17895217
188	0x3e4cf8bf	0.20016764
189	0xbdccd6dd	-0.100019194
190	0xbf2e87f5	-0.68176204
191	0xbed8069f	-0.42192551
192	0xbcbbb15e	-0.022911724
193	0xbde0102d	-0.10940585
194	0xbbae6412	-0.005321988
195	0x3d808198	0.06274718
196	0x3e0cd5f8	0.13753498
197	0x3f03df9c	0.51513076
198	0x3e492f95	0.19647057
199	0x3e2c77b7	0.16842543
200	0xbedb8693	-0.4287611
201	0x3e832ee8	0.25621724
202	0x3d0e113b	0.0346844
203	0x3e8b18ae	0.27167267
204	0x3e4f5a55	0.20249303
205	0x3da51487	0.08060556
206	0xbe9d6c4a	-0.3074668
207	0x3e3d5a96	0.18491587
208	0x3dec138e	0.11527167
209	0xbf104eea	-0.56370413
210	0x3f6df011	0.9294444
211	0xbe24330c	-0.16035098
212	0x3eace9fb	0.33772263
213	0xbea35877	-0.3190343
214	0x3e0fb4cb	0.14033811
215	0xbe9b693a	-0.3035372
216	0x3f67b668	0.90512705
217	0x3eb7a6a6	0.3586933
218	0x3c20d9c7	0.009817547
219	0x3c940f2d	0.018073643
220	0xbd202d14	-0.03910549
221	0x3f2c0cd8	0.672071
222	0xbe39d52d	-0.18147726
223	0x3f8bd150	1.0923252
224	0x3bf3b94c	0.0074378606
225	0x3f37a6e9	0.7173906
226	0x3d7b1011	0.06129462
227	0xbe88db38	-0.2672975
228	0x3d8bd5dc	0.068279
229	0x3ce23234	0.02761183
230	0x3edf399e	0.43598646
231	0x3f47dbca	0.78069746
232	0x3e8e410e	0.27784008
233	0x3ed61a31	0.41816857
234	0x3d19cbb0	0.037547767
235	0x3e91036c	0.28322923
236	0xbf32761e	-0.6971148
237	0x3e99c31b	0.30031666
238	0x3e171eb6	0.14757809
239	0xbd928f7c	-0.07156274
240	0x4020d5a7	2.5130403
241	0x3f14e4de	0.58161724
242	0xbf94c1ca	-1.162164
243	0x3f5667a9	0.8375192
244	0x3dd45f3c	0.10369727
245	0xbfbfed24	-1.4994245
246	0xbedd2d89	-0.43198803
247	0x3f1e77bc	0.6190145
248	0x3e699e90	0.22814393
249	0xbf032717	-0.5123152
250	0x3e349a8a	0.17637077
251	0x3f38217c	0.71926093
252	0xbe95035d	-0.29104128
253	0xbf260eda	-0.6486641
254	0xbf752790	-0.9576349
255	0x3fa41ee9	1.2821933

weight_ih f4 [30, 10]
0	0xbe96d630	-0.29460287
1	0x3f9a95e6	1.2076995
2	0x3f56916c	0.83815646
3	0xbfd0f84e	-1.6325777
4	0x3fe32e35	1.7748476
5	0x3f3e97a7	0.74450153
6	0x3fa8070f	1.3127154
7	0x3f559f57	0.8344626
8	0xbf5db505	-0.8660434
9	0x3fe8d0fb	1.8188776
10	0xbf00b4c6	-0.5027584
11	0x3efdd51c	0.49576652
12	0xbf142d02	-0.57881176
13	0x3f8f94a4	1.1217237
14	0xbf5a2b42	-0.85222256
15	0xbffe61ce	-1.9873598
16	0x3d21045a	0.03931079
17	0xbff11218	-1.8833647
18	0x3fba7515	1.4566981
19	0x403f8daf	2.9930227
20	0x3dfcac09	0.123375006
21	0x3f55ee70	0.8356695
22	0x3da2cc3f	0.07949113
23	0xbfb079b7	-1.3787144
24	0x3f2d3cce	0.67670906
25	0x3fe8adb3	1.8178009
26	0x3e80134b	0.2501472
27	0x3f758f66	0.95921934
28	0xc027f898	-2.624548
29	0x3f4a25b1	0.7896376
30	0xbf4cf39f	-0.80059236
31	0xbdcc16f4	-0.099653155
32	0xbeabefea	-0.33581477
33	0x3fa70f51	1.3051549
34	0xbe6aeb64	-0.22941357
35	0x3faa404c	1.3300872
36	0xbfe06853	-1.7531837
37	0xbf90b6df	-1.1305808
38	0x3f1a4af5	0.60270625
39	0x3ec660ee	0.38745826
40	0x3f252d92	0.6452266
41	0x3f18ba61	0.5965939
42	0xbf1e430b	-0.6182105
43	0x3d9dc28f	0.07703125
44	0x400b5739	2.1771986
45	0x3f2a8128	0.66603327
46	0x3f2d21b5	0.6762956
47	0x3e304c1f	0.17216538
48	0x3e6568fb	0.22403328
49	0xbf54d39d	-0.83135396
50	0xbf255886	-0.645882
51	0x3f35f196	0.71071756
52	0x3efe3bf4	0.49655116
53	0xbe8e30a1	-0.27771476
54	0x3e35807f	0.17724799
55	0xbf9042c2	-1.1270373
56	0xbf614390	-0.8799372
57	0x3f0359da	0.5130898
58	0x3f57b7c9	0.8426481
59	0x3e6719cf	0.22568439
60	0x3f814d54	1.0101724
61	0xc02ad392	-2.6691632
62	0xbc75ea76	-0.015009513
63	0xbf639a94	-0.8890774
64	0xbf8836d8	-1.0641737
65	0x400c9936	2.1968513
66	0xbf96d3c0	-1.1783371
67	0x3e84eb18	0.25960612
68	0xbfb232b6	-1.3921726
69	0xbf31feef	-0.6952962
70	0x3f8830dd	1.0639912
71	0x3e81e1b8	0.25367522
72	0xbfc4e677	-1.5382832
73	0xbf98f019	-1.1948272
74	0xbf19209a	-0.5981537
75	0x3cb01ba3	0.021497553
76	0x3d7c3d84	0.061582103
77	0xbdeda640	-0.11603975
78	0xbfc0332d	-1.5015618
79	0xbf89d230	-1.0767269
80	0x4064d145	3.5752728
81	0xc00d40de	-2.2070842
82	0xbf6ca858	-0.9244437
83	0xbf32e462	-0.69879735
84	0xbfb84210	-1.4395161
85	0x3f8da35c	1.1065478
86	0x3fb51677	1.4147481
87	0xbf904d4f	-1.1273593
88	0xc0128e10	-2.2899208
89	0xbf0f1148	-0.55885744
90	0xbe4aa976	-0.19791207
91	0xbec2c5e9	-0.38041618
92	0xbd9d2ef5	-0.07674972
93	0x3d9988e7	0.07496815
94	0x3e913cb8	0.28366637
95	0xbfc9181e	-1.5710485
96	0xbed1ed46	-0.41001338
97	0x3ff1f1ca	1.8901913
98	0x4024bc0a	2.573977
99	0x3e981e75	0.29710737
100	0xbd51a2af	-0.051180538
101	0x3eb4c2d6	0.35304898
102	0xbf42933e	-0.76005924
103	0xbe899d52	-0.26877838
104	0x3f02837b	0.50981873
105	0x3e9f14a3	0.31070432
106	0xbf1c20fc	-0.6098783
107	0xbedb2ad5	-0.42806116
108	0x3d9cefe9	0.07662947
109	0xbddadec7	-0.10687023
110	0xbf96ce22	-1.1781657
111	0x3f67d340	0.90556717
112	0x3f0ac1ab	0.54201764
113	0xbf1408f8	-0.57826185
114	0x3e0972e7	0.13422738
115	0x3d346d2f	0.044049438
116	0xbe721a1f	-0.23642777
117	0x3f510ea4	0.81662965
118	0x3ef667ef	0.4812617
119	0xbf6b309d	-0.91871053
120	0xbd91e5d6	-0.07123916
121	0xbe001e38	-0.12511528
122	0x3e0dbe0c	0.13842028
123	0x3e5fe574	0.21864873
124	0xbe873d58	-0.2641399
125	0xbddc178e	-0.1074668
126	0xbde5244b	-0.11188563
127	0x3df5fe35	0.12011377
128	0x3d0cd1c1	0.034379724
129	0xbdb12d2c	-0.08651194
130	0xbd85ebbf	-0.065391056
131	0x3f643243	0.89139193
132	0xbeafb0ee	-0.34314674
133	0x3f251da9	0.6449838
134	0xbec8760f	-0.39152572
135	0x3f87c668	1.0607424
136	0xbf012381	-0.504448
137	0x3e809cdb	0.2511967
138	0x3fa450cf	1.2837161
139	0x3f2ab7e6	0.66686857
140	0x3f82aa79	1.0208274
141	0x3ec0b7bf	0.37640187
142	0xbf646b68	-0.8922639
143	0xbf99201d	-1.1962925
144	0x3f7f2df1	0.99679476
145	0xbe879d82	-0.26487356
146	0xbc4d49fd	-0.012529847
147	0x3dbcb6d9	0.09214563
148	0x3f75e286	0.9604877
149	0xbd8411e2	-0.064487234
150	0xc0519063	-3.2744377
151	0xbfc6e5a2	-1.5538828
152	0x3f441916	0.7660078
153	0x407dbba4	3.9645777
154	0xbe9e7920	-0.30951786
155	0xbf360971	-0.71108156
156	0xc0609fcc	-3.5097532
157	0xbe062c70	-0.13102889
158	0x3ff6fc27	1.9295701
159	0xbf641a3f	-0.8910255
160	0xbc3aa7a7	-0.0113925105
161	0x3e46c2ee	0.19410297
162	0x3f01ee58	0.5075431
163	0x3e715070	0.2356584
164	0xbc99a3dd	-0.018754894
165	0x3f0a8d8f	0.5412225
166	0x3f7456e1	0.95445067
167	0x3d745ba4	0.059657708
168	0x3f4f56a3	0.8099157
169	0xbf36a88f	-0.7135095
170	0x3cbefb9a	0.023313332
171	0xbda2302e	-0.07919346
172	0x3e4f9e5b	0.20275252
173	0x3dc4dfc3	0.09612992
174	0xbe76bfcc	-0.24096602
175	0x3c104d5a	0.008807505
176	0xbdf983e8	-0.12183362
177	0x3dbb5796	0.09147565
178	0xbd4937c4	-0.049125448
179	0xbe028b51	-0.12748457
180	0xbfa1ca7c	-1.2639918
181	0x3f5505e5	0.8321212
182	0xbed1580d	-0.4088749
183	0x3d25ca8e	0.040476374
184	0x3c3835c4	0.0112432875
185	0x3f1b2719	0.60606533
186	0xbf83121d	-1.0239903
187	0xbebfb863	-0.37445363
188	0x3f4f6ed1	0.8102847
189	0x3f050cec	0.5197284
190	0xbfa90985	-1.320603
191	0x3eece2a5	0.46266666
192	0xbeeea7d5	-0.4661242
193	0xbf63dbdc	-0.89007354
194	0xbe2c9219	-0.16852607
195	0xbfcb6256	-1.5889385
196	0xbe82ff34	-0.2558533
197	0x3efb139b	0.49038395
198	0x3e1a1a94	0.15049201
199	0x3f8ebb8d	1.1150986
200	0x3e8203a5	0.25393406
201	0x3f8655d8	1.0494947
202	0xbf97171b	-1.1803926
203	0x3edfedde	0.43736166
204	0xbd66c320	-0.05633843
205	0xbed34173	-0.4126087
206	0xbf2d2085	-0.67627746
207	0xbe821837	-0.254091
208	0x3e787007	0.24261485
209	0xbf38fe12	-0.7226268
210	0xbea1ceef	-0.3160319
211	0x3ebb3bf6	0.36569184
212	0x3dfe2572	0.12409486
213	0xbe6ecf4c	-0.23321265
214	0x3f28c18a	0.6592032
215	0xbe5da5ec	-0.21645325
216	0x3d284335	0.04107972
217	0x3fa2ebfc	1.2728267
218	0x3d2bda23	0.04195608
219	0xbd9ffe2b	-0.078121506
220	0x3eb26c16	0.34848088
221	0xbf058fd3	-0.52172583
222	0x3ded84ea	0.11597617
223	0x3e77f401	0.24214174
224	0x3def0e73	0.11672678
225	0x3d1729c7	0.036905076
226	0xbec3328b	-0.381245
227	0xbe802d36	-0.25034493
228	0xbea7ddf3	-0.3278652
229	0xbe55235a	-0.20814267
230	0xbe0e4b60	-0.13895941
231	0xbec2eeee	-0.38072914
232	0xbf25964c	-0.6468246
233	0x3f002b2e	0.50065887
234	0xbf0f365f	-0.5594234
235	0x3f506b06	0.81413305
236	0xbf02da75	-0.5111459
237	0x3f774d7d	0.9660261
238	0xbdeb3ad5	-0.11485831
239	0x3ec821ab	0.39088187
240	0x3f960961	1.1721612
241	0x3ee4814c	0.44629896
242	0x3e5be9c1	0.21475889
243	0xbe616202	-0.22010043
244	0xbf18410f	-0.5947427
245	0xbee86733	-0.45391235
246	0xbeeb5f99	-0.45971373
247	0x3ee7e2f6	0.45290345
248	0xbdcc600f	-0.09979259
249	0x3e3716cc	0.1787979
250	0x3fd43df6	1.6581409
251	0x3e633e62	0.22191766
252	0x3e893e13	0.2680517
253	0xbff56d57	-1.9173993
254	0xbe873388	-0.26406503
255	0x3f60628f	0.8765039

weight_hh f4 [30, 10]
0	0xbf3f0c49	-0.7462812
1	0xbeb66943	-0.35627183
2	0xbec060c6	-0.37573832
3	0x3d95812f	0.073000304
4	0x3ff0a79a	1.8801148
5	0xbfa67a6d	-1.3006111
6	0xbf2c575a	-0.6732079
7	0xbd950336	-0.07276003
8	0x3f8c3ef2	1.0956709
9	0x3ec1d12d	0.378549
10	0x3e4f33cf	0.20234607
11	0xbceb195a	-0.028698612
12	0xbfb54139	-1.4160529
13	0xbf3721ba	-0.7153584
14	0x3eb91853	0.3615137
15	0xc014956d	-2.3216202
16	0xbfa1241c	-1.2589145
17	0xbfee842a	-1.8634083
18	0x3f6dc06d	0.92871743
19	0x3d230240	0.039797068
20	0x3f1aa46f	0.60407156
21	0xbd8e23c9	-0.06940419
22	0x4041f741	3.0307162
23	0x3f4f881f	0.8106708
24	0xbd899cf4	-0.067193896
25	0x40570d9e	3.3602061
26	0xbf0aa9ff	-0.54165643
27	0x408f8a96	4.485667
28	0xbe5df32f	-0.21674798
29	0xbfe0788a	-1.7536786
30	0xbe90627e	-0.28200144
31	0xbf8d8a18	-1.1057768
32	0xbf8abf46	-1.0839622
33	0x3ff9081b	1.9455599
34	0xbf91328d	-1.1343552
35	0xbf6eb0cf	-0.9323854
36	0xbdb78568	-0.08960992
37	0xc00d235e	-2.2052836
38	0xbf433d4b	-0.762654
39	0xbf1cd744	-0.6126597
40	0x3e7592cc	0.2398178
41	0x3d202d03	0.039105427
42	0xbf459b3b	-0.7718999
43	0xbdeba263	-0.11505582
44	0x404ddd46	3.2166305
45	0xbeb5f551	-0.35538724
46	0xbf5beda0	-0.8590946
47	0xbf5aed11	-0.85517985
48	0x3f4a69a1	0.79067427
49	0x3e06f8c3	0.13180833
50	0x3e838f71	0.25695375
51	0xc040a3d8	-3.0100002
52	0xbdc821fa	-0.097721055
53	0x3f0daca9	0.55341583
54	0xbfef8386	-1.8712013
55	0x3fe7ed44	1.8119283
56	0x40175b7a	2.3649583
57	0x40631c86	3.548616
58	0xbe913abf	-0.28365132
59	0xbf74c8db	-0.9561898
60	0x3d182c4e	0.037151627
61	0xbf868ab7	-1.0511082
62	0xc00ad4aa	-2.16923
63	0x3ec79751	0.38982633
64	0x3f501d00	0.8129425
65	0xc013b2f7	-2.3077981
66	0x3fa6fd24	1.3046002
67	0xbeb6d6bd	-0.35710707
68	0x3f7ba7e4	0.98303056
69	0x3e24ba10	0.16086602
70	0x3f63c1bb	0.88967484
71	0xbf8278d1	-1.019312
72	0x405d9ad2	3.4625745
73	0x3e86efb6	0.2635476
74	0xbf4d3180	-0.80153656
75	0x40416124	3.021554
76	0x3fa5a5d1	1.2941228
77	0x40372b24	2.862008
78	0xc000c8bd	-2.012252
79	0x3ec690d3	0.38782367
80	0xbef6cfef	-0.48205516
81	0x3e4ed654	0.20198947
82	0xc00ebb4f	-2.2301824
83	0x3f6ccaa2	0.92496693
84	0xbf21746c	-0.6306827
85	0xc05bc261	-3.433739
86	0xbfd8ac17	-1.6927518
87	0x3ca8ab0a	0.02058937
88	0x3f377aac	0.7167156
89	0x3e97a11a	0.29615098
90	0xbfdba761	-1.7160455
91	0x3ec193c7	0.37808058
92	0xbf8a0729	-1.0783435
93	0xbe082d7c	-0.13298601
94	0x3fc8581d	1.565189
95	0xbf74b092	-0.95581925
96	0xbffcdf4a	-1.9755642
97	0xbf8a0c07	-1.078492
98	0x3f524238	0.8213229
99	0x3f8f7b7b	1.1209558
100	0x3f4c3c0e	0.79779136
101	0x3eb800ec	0.35938203
102	0xbf38c3f1	-0.7217398
103	0xbef473c8	-0.47744584
104	0x3f42c22e	0.76077545
105	0xbf2bdbbe	-0.67132175
106	0xbed0e30f	-0.40798232
107	0xbf6b8638	-0.92001677
108	0x3e6e6cd1	0.23283698
109	0x3e9e294e	0.30890888
110	0xbf75f596	-0.9607786
111	0x3f9f32e9	1.2437412
112	0xbfd13d56	-1.6346843
113	0xbee5edd0	-0.44908
114	0x3f95ca30	1.1702328
115	0xc019a22f	-2.400524
116	0x3ecca0a8	0.3996632
117	0xbf195b00	-0.5990448
118	0x3f217344	0.63066506
119	0x3f7c51a6	0.98562086
120	0xbd30244d	-0.04300337
121	0x3dafa78f	0.08576881
122	0xbf956d09	-1.16739
123	0xbe838dbc	-0.25694072
124	0xbd9aff5a	-0.07568236
125	0xbf66dea5	-0.9018348
126	0x3e024383	0.12721066
127	0xc00e4fa5	-2.223611
128	0xbf0b7a09	-0.54483086
129	0xbe4cb2aa	-0.1999003
130	0xbf010df6	-0.5041193
131	0xbf22d872	-0.6361152
132	0xbfb13fed	-1.3847634
133	0x3f0ae06c	0.5424869
134	0x3f680637	0.90634483
135	0xbf9be071	-1.2177869
136	0xbf83dd90	-1.030199
137	0xbf6e1a3d	-0.93008786
138	0x3f0ea0c8	0.5571408
139	0x3e905e4c	0.28196943
140	0xbd53c440	-0.05170083
141	0x3e9250b3	0.28577194
142	0xbea48394	-0.32131636
143	0x3e56394d	0.20920296
144	0x3fb7be47	1.4354943
145	0xbf0a6055	-0.5405324
146	0xbe93f1eb	-0.28895506
147	0xbf325591	-0.69661814
148	0x3ed788c5	0.42096534
149	0x3df1d95b	0.118090354
150	0xc01e4ac6	-2.4733138
151	0x3fb744e9	1.4317905
152	0x3f1226dd	0.5709055
153	0xbf30d5d9	-0.69076306
154	0x40203230	2.5030632
155	0x407ef4d2	3.9836926
156	0xc00fb5ec	-2.2454786
157	0xbfd50528	-1.6642199
158	0x3fe01206	1.75055
159	0x40150da9	2.3289587
160	0xbd85f528	-0.065409005
161	0xbee37fba	-0.44433385
162	0x3de7829f	0.11304211
163	0x3d8fb784	0.07017425
164	0x3e2467ed	0.1605527
165	0xbfc9f517	-1.577792
166	0x3d8077fe	0.06272887
167	0x3f42fb5a	0.7616478
168	0x3f5a9f96	0.8539976
169	0x3e09626e	0.13416454
170	0x3f3ae167	0.73000187
171	0x3cf698fc	0.030102246
172	0xbe61f57f	-0.22066306
173	0xbf264716	-0.6495222
174	0xbf7482c4	-0.9551203
175	0x400c73cd	2.194568
176	0x3f4969a2	0.7867681
177	0x3f7c6229	0.9858728
178	0xbfaeab01	-1.3645936
179	0xbf83422d	-1.025457
180	0xbf354f09	-0.70823723
181	0x3e5428cf	0.20718692
182	0xbfd0272d	-1.6261955
183	0x3e17d702	0.14828113
184	0x3f8824e4	1.0636258
185	0x3e986543	0.29764757
186	0xbf4561c5	-0.7710231
187	0xbea3d5e5	-0.31999126
188	0x3d8da145	0.06915525
189	0x3f62e0d0	0.88624287
190	0x3f87a8af	1.0598353
191	0x3e6cb2a6	0.23115024
192	0xbf20bc7b	-0.627876
193	0x3f233755	0.63756305
194	0x3d8f5a32	0.06999625
195	0xbe5ef063	-0.21771388
196	0xbe870e50	-0.26378107
197	0xbe04d7de	-0.12972972
198	0xbeecae2b	-0.4622663
199	0xbf419469	-0.7561708
200	0xbee25c3c	-0.44210994
201	0xbd511a73	-0.051050615
202	0x3efcd79b	0.49383244
203	0xbe947483	-0.2899514
204	0xbeadb78b	-0.33929095
205	0xbf09b029	-0.53784424
206	0x3ecbf552	0.39835602
207	0xbf265d10	-0.6498575
208	0xbf19760f	-0.5994577
209	0xbf86e958	-1.0539961
210	0x3ea27d54	0.31736243
211	0x3f083732	0.5320922
212	0x3fd92c59	1.6966659
213	0xbf9ce68c	-1.2257857
214	0x3de38c2f	0.11110722
215	0x3f3e451d	0.7432421
216	0xbde9e8be	-0.11421345
217	0xbee1827e	-0.4404487
218	0x3c99c8b7	0.018772466
219	0xbecc03de	-0.398467
220	0x3eeec933	0.46637878
221	0xbf26a53f	-0.65095896
222	0x4074c705	3.8246472
223	0x3f682c2b	0.90692395
224	0x3e703b43	0.23460107
225	0x40730c7a	3.7976365
226	0x3fbf8dd6	1.496516
227	0x401e1667	2.4701173
228	0xbf5d64c3	-0.86481875
229	0xbf55eff2	-0.8356925
230	0x3ee89775	0.45428053
231	0x3e612da0	0.21990061
232	0xbf0ae500	-0.54255676
233	0xc0010094	-2.0156603
234	0xbf14388f	-0.578988
235	0xbed67abb	-0.4189051
236	0x3d9f5db2	0.07781543
237	0x3f39af84	0.7253344
238	0x3e9643b1	0.2934852
239	0x3dc47a98	0.095936954
240	0xbf11b382	-0.5691453
241	0x3bbdbee0	0.0057905763
242	0xbe833bc6	-0.2563154
243	0x3d972fc0	0.073821545
244	0xc0041a0b	-2.0640895
245	0xbf882cba	-1.063865
246	0x3e0fecb2	0.14055136
247	0x3f6ad8b8	0.91736937
248	0xbebab2e1	-0.364646
249	0x3d26d656	0.04073175
250	0x3fe65c00	1.7996826
251	0xc01ca3e5	-2.4475033
252	0x3f8f4fa1	1.1196176
253	0x3f76ff1f	0.96483034
254	0xbffe3af9	-1.9861747
255	0x3fe74907	1.8069161

bias_ih f4 [30]
0	0xbece39ca	-0.40278465
1	0xbfa32e66	-1.2748535
2	0x3f84b71f	1.0368384
3	0xbfcf68b3	-1.6203827
4	0xbf2980a7	-0.6621193
5	0xbf0f1701	-0.55894476
6	0xbfcf6acd	-1.6204468
7	0x3bd02593	0.0063521354
8	0xbfbecc94	-1.4906182
9	0xbfa906a1	-1.3205148
10	0xbf27857b	-0.6543805
11	0xbfc34ba5	-1.525746
12	0x3f95bacb	1.169763
13	0xbeeb4f1a	-0.45958787
14	0xbe1c5a75	-0.15268882
15	0x3eba5e1d	0.36399928
16	0xbf361df6	-0.71139467
17	0xbedd3e00	-0.43211365
18	0xbf7b719a	-0.9822022
19	0xbf8a9715	-1.0827357
20	0x3ea2f305	0.31826034
21	0xbd9b9331	-0.07596434
22	0xbebe5f9e	-0.37182325
23	0xbcf0a3aa	-0.029374916
24	0xbe43fe66	-0.19140014
25	0x3e7951eb	0.24347655
26	0x3e9118b8	0.2833917
27	0xbf3ce67e	-0.73789203
28	0x3cbf417b	0.023346653
29	0xbd8ff4b1	-0.07029093

bias_hh f4 [30]
0	0xbeeca882	-0.4622231
1	0xbf884760	-1.0646782
2	0x3f53c837	0.8272738
3	0xbfc5d6cf	-1.5456179
4	0xbf3b1885	-0.7308429
5	0xbf336d0d	-0.70088273
6	0xbfddb601	-1.7321168
7	0x3dc61300	0.09671593
8	0xbfb6d034	-1.4282289
9	0xbf97dda7	-1.1864518
10	0xbf4ec25b	-0.8076531
11	0xbfce5bab	-1.6121725
12	0x3f9f959d	1.2467533
13	0xbf7bc490	-0.98346806
14	0xbeabd521	-0.33561042
15	0x3dcfbed2	0.10143818
16	0xbf4e9eca	-0.8071104
17	0xbef4c41e	-0.47805876
18	0xbf400ce8	-0.75019693
19	0xbf81176b	-1.0085272
20	0xbf463b46	-0.77434194
21	0xbf9b0131	-1.2109739
22	0xbf0603b1	-0.5234938
23	0x3f5020c2	0.81299984
24	0x3f1610d7	0.58619446
25	0x3e7036a6	0.23458347
26	0x3fcc929f	1.5982245
27	0x3f8f1dc3	1.1180958
28	0xc01469f8	-2.3189678
29	0x3f65f527	0.898272
